…
I20251031 10:20:48 2277914 dinov3 train.py:666] Model after distributed:
SSLMetaArch(
  (dino_loss): DINOLoss()
  (koleo_loss): KoLeoLoss(
    (pdist): PairwiseDistance()
  )
  (ibot_patch_loss): iBOTPatchLoss(
    (sinkhorn_knopp_teacher): SinkhornKnoppTeacher()
  )
  (buildings_loss): BuildingsLoss()
  (climate_loss): ClimateLoss()
  (clouds_loss): CloudsLoss()
  (coords_loss): CoordsLoss()
  (landcover_loss): LandcoverLoss()
  (terrain_loss): TerrainLoss()
  (urbanization_loss): UrbanizationLoss()
  (water_loss): WaterLoss()
  (student): ModuleDict(
    (backbone): FSDPDinoVisionTransformer(
      (patch_embed): PatchEmbed(
        (proj): Conv2d(3, 4096, kernel_size=(16, 16), stride=(16, 16))
        (norm): Identity()
      )
      (rope_embed): RopePositionEmbedding()
      (blocks): ModuleList(
        (0-39): 40 x FSDPCheckpointWrapper(
          (_checkpoint_wrapped_module): SelfAttentionBlock(
            (norm1): LayerNorm((4096,), eps=1e-05, elementwise_affine=True)
            (attn): SelfAttention(
              (qkv): Fp8LinearKMaskedBias(in_features=4096, out_features=12288, bias=False)
              (attn_drop): Dropout(p=0.0, inplace=False)
              (proj): Fp8Linear(in_features=4096, out_features=4096, bias=True)
              (proj_drop): Dropout(p=0.0, inplace=False)
            )
            (ls1): LayerScale()
            (norm2): LayerNorm((4096,), eps=1e-05, elementwise_affine=True)
            (mlp): SwiGLUFFN(
              (w1): Fp8Linear(in_features=4096, out_features=8192, bias=True)
              (w2): Fp8Linear(in_features=4096, out_features=8192, bias=True)
              (w3): Fp8Linear(in_features=8192, out_features=4096, bias=True)
            )
            (ls2): LayerScale()
          )
        )
      )
      (norm): LayerNorm((4096,), eps=1e-05, elementwise_affine=True)
      (local_cls_norm): LayerNorm((4096,), eps=1e-05, elementwise_affine=True)
      (head): Identity()
    )
    (dino_head): FSDPDINOHead(
      (mlp): Sequential(
        (0): Linear(in_features=4096, out_features=8192, bias=True)
        (1): GELU(approximate='none')
        (2): Linear(in_features=8192, out_features=8192, bias=True)
        (3): GELU(approximate='none')
        (4): Linear(in_features=8192, out_features=512, bias=True)
      )
      (last_layer): Linear(in_features=512, out_features=262144, bias=False)
    )
    (ibot_head): FSDPDINOHead(
      (mlp): Sequential(
        (0): Linear(in_features=4096, out_features=4096, bias=True)
        (1): GELU(approximate='none')
        (2): Linear(in_features=4096, out_features=4096, bias=True)
        (3): GELU(approximate='none')
        (4): Linear(in_features=4096, out_features=384, bias=True)
      )
      (last_layer): Linear(in_features=384, out_features=98304, bias=False)
    )
    (buildings_head): FSDPDINOHead(
      (mlp): Sequential(
        (0): Linear(in_features=4096, out_features=1024, bias=True)
        (1): GELU(approximate='none')
        (2): Linear(in_features=1024, out_features=1024, bias=True)
        (3): GELU(approximate='none')
        (4): Linear(in_features=1024, out_features=128, bias=True)
      )
      (last_layer): Linear(in_features=128, out_features=1, bias=False)
    )
    (climate_head): FSDPDINOHead(
      (mlp): Sequential(
        (0): Linear(in_features=4096, out_features=1024, bias=True)
        (1): GELU(approximate='none')
        (2): Linear(in_features=1024, out_features=1024, bias=True)
        (3): GELU(approximate='none')
        (4): Linear(in_features=1024, out_features=128, bias=True)
      )
      (last_layer): Linear(in_features=128, out_features=30, bias=False)
    )
    (clouds_head): FSDPDINOHead(
      (mlp): Sequential(
        (0): Linear(in_features=4096, out_features=1024, bias=True)
        (1): GELU(approximate='none')
        (2): Linear(in_features=1024, out_features=1024, bias=True)
        (3): GELU(approximate='none')
        (4): Linear(in_features=1024, out_features=128, bias=True)
      )
      (last_layer): Linear(in_features=128, out_features=4, bias=False)
    )
    (coords_head): FSDPDINOHead(
      (mlp): Sequential(
        (0): Linear(in_features=4096, out_features=1024, bias=True)
        (1): GELU(approximate='none')
        (2): Linear(in_features=1024, out_features=1024, bias=True)
        (3): GELU(approximate='none')
        (4): Linear(in_features=1024, out_features=128, bias=True)
      )
      (last_layer): Linear(in_features=128, out_features=4, bias=False)
    )
    (landcover_head): FSDPDINOHead(
      (mlp): Sequential(
        (0): Linear(in_features=4096, out_features=1024, bias=True)
        (1): GELU(approximate='none')
        (2): Linear(in_features=1024, out_features=1024, bias=True)
        (3): GELU(approximate='none')
        (4): Linear(in_features=1024, out_features=128, bias=True)
      )
      (last_layer): Linear(in_features=128, out_features=11, bias=False)
    )
    (terrain_head): FSDPDINOHead(
      (mlp): Sequential(
        (0): Linear(in_features=4096, out_features=1024, bias=True)
        (1): GELU(approximate='none')
        (2): Linear(in_features=1024, out_features=1024, bias=True)
        (3): GELU(approximate='none')
        (4): Linear(in_features=1024, out_features=128, bias=True)
      )
      (last_layer): Linear(in_features=128, out_features=22, bias=False)
    )
    (urbanization_head): FSDPDINOHead(
      (mlp): Sequential(
        (0): Linear(in_features=4096, out_features=1024, bias=True)
        (1): GELU(approximate='none')
        (2): Linear(in_features=1024, out_features=1024, bias=True)
        (3): GELU(approximate='none')
        (4): Linear(in_features=1024, out_features=128, bias=True)
      )
      (last_layer): Linear(in_features=128, out_features=7, bias=False)
    )
    (water_head): FSDPDINOHead(
      (mlp): Sequential(
        (0): Linear(in_features=4096, out_features=1024, bias=True)
        (1): GELU(approximate='none')
        (2): Linear(in_features=1024, out_features=1024, bias=True)
        (3): GELU(approximate='none')
        (4): Linear(in_features=1024, out_features=128, bias=True)
      )
      (last_layer): Linear(in_features=128, out_features=1, bias=False)
    )
  )
  (teacher): ModuleDict(
    (backbone): FSDPDinoVisionTransformer(
      (patch_embed): PatchEmbed(
        (proj): Conv2d(3, 4096, kernel_size=(16, 16), stride=(16, 16))
        (norm): Identity()
      )
      (rope_embed): RopePositionEmbedding()
      (blocks): ModuleList(
        (0-39): 40 x FSDPSelfAttentionBlock(
          (norm1): LayerNorm((4096,), eps=1e-05, elementwise_affine=True)
          (attn): SelfAttention(
            (qkv): Fp8LinearKMaskedBias(in_features=4096, out_features=12288, bias=False)
            (attn_drop): Dropout(p=0.0, inplace=False)
            (proj): Fp8Linear(in_features=4096, out_features=4096, bias=True)
            (proj_drop): Dropout(p=0.0, inplace=False)
          )
          (ls1): LayerScale()
          (norm2): LayerNorm((4096,), eps=1e-05, elementwise_affine=True)
          (mlp): SwiGLUFFN(
            (w1): Fp8Linear(in_features=4096, out_features=8192, bias=True)
            (w2): Fp8Linear(in_features=4096, out_features=8192, bias=True)
            (w3): Fp8Linear(in_features=8192, out_features=4096, bias=True)
          )
          (ls2): LayerScale()
        )
      )
      (norm): LayerNorm((4096,), eps=1e-05, elementwise_affine=True)
      (local_cls_norm): LayerNorm((4096,), eps=1e-05, elementwise_affine=True)
      (head): Identity()
    )
    (dino_head): FSDPDINOHead(
      (mlp): Sequential(
        (0): Linear(in_features=4096, out_features=8192, bias=True)
        (1): GELU(approximate='none')
        (2): Linear(in_features=8192, out_features=8192, bias=True)
        (3): GELU(approximate='none')
        (4): Linear(in_features=8192, out_features=512, bias=True)
      )
      (last_layer): Linear(in_features=512, out_features=262144, bias=False)
    )
    (ibot_head): FSDPDINOHead(
      (mlp): Sequential(
        (0): Linear(in_features=4096, out_features=4096, bias=True)
        (1): GELU(approximate='none')
        (2): Linear(in_features=4096, out_features=4096, bias=True)
        (3): GELU(approximate='none')
        (4): Linear(in_features=4096, out_features=384, bias=True)
      )
      (last_layer): Linear(in_features=384, out_features=98304, bias=False)
    )
    (buildings_head): FSDPDINOHead(
      (mlp): Sequential(
        (0): Linear(in_features=4096, out_features=1024, bias=True)
        (1): GELU(approximate='none')
        (2): Linear(in_features=1024, out_features=1024, bias=True)
        (3): GELU(approximate='none')
        (4): Linear(in_features=1024, out_features=128, bias=True)
      )
      (last_layer): Linear(in_features=128, out_features=1, bias=False)
    )
    (climate_head): FSDPDINOHead(
      (mlp): Sequential(
        (0): Linear(in_features=4096, out_features=1024, bias=True)
        (1): GELU(approximate='none')
        (2): Linear(in_features=1024, out_features=1024, bias=True)
        (3): GELU(approximate='none')
        (4): Linear(in_features=1024, out_features=128, bias=True)
      )
      (last_layer): Linear(in_features=128, out_features=30, bias=False)
    )
    (clouds_head): FSDPDINOHead(
      (mlp): Sequential(
        (0): Linear(in_features=4096, out_features=1024, bias=True)
        (1): GELU(approximate='none')
        (2): Linear(in_features=1024, out_features=1024, bias=True)
        (3): GELU(approximate='none')
        (4): Linear(in_features=1024, out_features=128, bias=True)
      )
      (last_layer): Linear(in_features=128, out_features=4, bias=False)
    )
    (coords_head): FSDPDINOHead(
      (mlp): Sequential(
        (0): Linear(in_features=4096, out_features=1024, bias=True)
        (1): GELU(approximate='none')
        (2): Linear(in_features=1024, out_features=1024, bias=True)
        (3): GELU(approximate='none')
        (4): Linear(in_features=1024, out_features=128, bias=True)
      )
      (last_layer): Linear(in_features=128, out_features=4, bias=False)
    )
    (landcover_head): FSDPDINOHead(
      (mlp): Sequential(
        (0): Linear(in_features=4096, out_features=1024, bias=True)
        (1): GELU(approximate='none')
        (2): Linear(in_features=1024, out_features=1024, bias=True)
        (3): GELU(approximate='none')
        (4): Linear(in_features=1024, out_features=128, bias=True)
      )
      (last_layer): Linear(in_features=128, out_features=11, bias=False)
    )
    (terrain_head): FSDPDINOHead(
      (mlp): Sequential(
        (0): Linear(in_features=4096, out_features=1024, bias=True)
        (1): GELU(approximate='none')
        (2): Linear(in_features=1024, out_features=1024, bias=True)
        (3): GELU(approximate='none')
        (4): Linear(in_features=1024, out_features=128, bias=True)
      )
      (last_layer): Linear(in_features=128, out_features=22, bias=False)
    )
    (urbanization_head): FSDPDINOHead(
      (mlp): Sequential(
        (0): Linear(in_features=4096, out_features=1024, bias=True)
        (1): GELU(approximate='none')
        (2): Linear(in_features=1024, out_features=1024, bias=True)
        (3): GELU(approximate='none')
        (4): Linear(in_features=1024, out_features=128, bias=True)
      )
      (last_layer): Linear(in_features=128, out_features=7, bias=False)
    )
    (water_head): FSDPDINOHead(
      (mlp): Sequential(
        (0): Linear(in_features=4096, out_features=1024, bias=True)
        (1): GELU(approximate='none')
        (2): Linear(in_features=1024, out_features=1024, bias=True)
        (3): GELU(approximate='none')
        (4): Linear(in_features=1024, out_features=128, bias=True)
      )
      (last_layer): Linear(in_features=128, out_features=1, bias=False)
    )
  )
  (model_ema): ModuleDict(
    (backbone): FSDPDinoVisionTransformer(
      (patch_embed): PatchEmbed(
        (proj): Conv2d(3, 4096, kernel_size=(16, 16), stride=(16, 16))
        (norm): Identity()
      )
      (rope_embed): RopePositionEmbedding()
      (blocks): ModuleList(
        (0-39): 40 x FSDPSelfAttentionBlock(
          (norm1): LayerNorm((4096,), eps=1e-05, elementwise_affine=True)
          (attn): SelfAttention(
            (qkv): Fp8LinearKMaskedBias(in_features=4096, out_features=12288, bias=False)
            (attn_drop): Dropout(p=0.0, inplace=False)
            (proj): Fp8Linear(in_features=4096, out_features=4096, bias=True)
            (proj_drop): Dropout(p=0.0, inplace=False)
          )
          (ls1): LayerScale()
          (norm2): LayerNorm((4096,), eps=1e-05, elementwise_affine=True)
          (mlp): SwiGLUFFN(
            (w1): Fp8Linear(in_features=4096, out_features=8192, bias=True)
            (w2): Fp8Linear(in_features=4096, out_features=8192, bias=True)
            (w3): Fp8Linear(in_features=8192, out_features=4096, bias=True)
          )
          (ls2): LayerScale()
        )
      )
      (norm): LayerNorm((4096,), eps=1e-05, elementwise_affine=True)
      (local_cls_norm): LayerNorm((4096,), eps=1e-05, elementwise_affine=True)
      (head): Identity()
    )
    (dino_head): FSDPDINOHead(
      (mlp): Sequential(
        (0): Linear(in_features=4096, out_features=8192, bias=True)
        (1): GELU(approximate='none')
        (2): Linear(in_features=8192, out_features=8192, bias=True)
        (3): GELU(approximate='none')
        (4): Linear(in_features=8192, out_features=512, bias=True)
      )
      (last_layer): Linear(in_features=512, out_features=262144, bias=False)
    )
    (ibot_head): FSDPDINOHead(
      (mlp): Sequential(
        (0): Linear(in_features=4096, out_features=4096, bias=True)
        (1): GELU(approximate='none')
        (2): Linear(in_features=4096, out_features=4096, bias=True)
        (3): GELU(approximate='none')
        (4): Linear(in_features=4096, out_features=384, bias=True)
      )
      (last_layer): Linear(in_features=384, out_features=98304, bias=False)
    )
    (buildings_head): FSDPDINOHead(
      (mlp): Sequential(
        (0): Linear(in_features=4096, out_features=1024, bias=True)
        (1): GELU(approximate='none')
        (2): Linear(in_features=1024, out_features=1024, bias=True)
        (3): GELU(approximate='none')
        (4): Linear(in_features=1024, out_features=128, bias=True)
      )
      (last_layer): Linear(in_features=128, out_features=1, bias=False)
    )
    (climate_head): FSDPDINOHead(
      (mlp): Sequential(
        (0): Linear(in_features=4096, out_features=1024, bias=True)
        (1): GELU(approximate='none')
        (2): Linear(in_features=1024, out_features=1024, bias=True)
        (3): GELU(approximate='none')
        (4): Linear(in_features=1024, out_features=128, bias=True)
      )
      (last_layer): Linear(in_features=128, out_features=30, bias=False)
    )
    (clouds_head): FSDPDINOHead(
      (mlp): Sequential(
        (0): Linear(in_features=4096, out_features=1024, bias=True)
        (1): GELU(approximate='none')
        (2): Linear(in_features=1024, out_features=1024, bias=True)
        (3): GELU(approximate='none')
        (4): Linear(in_features=1024, out_features=128, bias=True)
      )
      (last_layer): Linear(in_features=128, out_features=4, bias=False)
    )
    (coords_head): FSDPDINOHead(
      (mlp): Sequential(
        (0): Linear(in_features=4096, out_features=1024, bias=True)
        (1): GELU(approximate='none')
        (2): Linear(in_features=1024, out_features=1024, bias=True)
        (3): GELU(approximate='none')
        (4): Linear(in_features=1024, out_features=128, bias=True)
      )
      (last_layer): Linear(in_features=128, out_features=4, bias=False)
    )
    (landcover_head): FSDPDINOHead(
      (mlp): Sequential(
        (0): Linear(in_features=4096, out_features=1024, bias=True)
        (1): GELU(approximate='none')
        (2): Linear(in_features=1024, out_features=1024, bias=True)
        (3): GELU(approximate='none')
        (4): Linear(in_features=1024, out_features=128, bias=True)
      )
      (last_layer): Linear(in_features=128, out_features=11, bias=False)
    )
    (terrain_head): FSDPDINOHead(
      (mlp): Sequential(
        (0): Linear(in_features=4096, out_features=1024, bias=True)
        (1): GELU(approximate='none')
        (2): Linear(in_features=1024, out_features=1024, bias=True)
        (3): GELU(approximate='none')
        (4): Linear(in_features=1024, out_features=128, bias=True)
      )
      (last_layer): Linear(in_features=128, out_features=22, bias=False)
    )
    (urbanization_head): FSDPDINOHead(
      (mlp): Sequential(
        (0): Linear(in_features=4096, out_features=1024, bias=True)
        (1): GELU(approximate='none')
        (2): Linear(in_features=1024, out_features=1024, bias=True)
        (3): GELU(approximate='none')
        (4): Linear(in_features=1024, out_features=128, bias=True)
      )
      (last_layer): Linear(in_features=128, out_features=7, bias=False)
    )
    (water_head): FSDPDINOHead(
      (mlp): Sequential(
        (0): Linear(in_features=4096, out_features=1024, bias=True)
        (1): GELU(approximate='none')
        (2): Linear(in_features=1024, out_features=1024, bias=True)
        (3): GELU(approximate='none')
        (4): Linear(in_features=1024, out_features=128, bias=True)
      )
      (last_layer): Linear(in_features=128, out_features=1, bias=False)
    )
  )
)
I20251031 10:20:48 2277914 dinov3 ssl_meta_arch.py:1234] Getting paramer groups for backbone
I20251031 10:20:48 2277914 dinov3 param_groups.py:168] cls_token: lr_multiplier: 0.4367863958719317, wd_multiplier: 1.0
I20251031 10:20:48 2277914 dinov3 param_groups.py:168] storage_tokens: lr_multiplier: 0.4367863958719317, wd_multiplier: 1.0
I20251031 10:20:48 2277914 dinov3 param_groups.py:168] mask_token: lr_multiplier: 0.4367863958719317, wd_multiplier: 1.0
…
